data/lstm_temp_predictor.pth (torch, 207557 bytes, 10 tensors)

lstm.weight_ih_l0 f4 [256, 2]
-0.10503505 0.110968724 -0.11519101 0.029518552 -0.023250362 0.15037997 -0.03301743 -0.10183827
-0.056067638 0.033450425 0.01159901 0.03290028 -0.010944011 -0.18034165 -0.042530894 0.15370172
0.08831624 -0.072313815 0.115767464 0.06735225 -0.11227408 -0.048053335 0.093181044 0.108564466
0.12401559 -0.029733315 0.008291501 0.120518625 -0.004202006 0.1697782 0.17625995 0.1546771
-0.10261687 -0.06783813 0.100643195 0.00065037207 -0.009540397 -0.040674433 -0.0022480944 -0.021720178
-0.13084523 -0.0745282 -0.06722111 -0.16398326 0.016914967 0.120949306 0.018365884 0.043942176
0.11446418 0.028672429 -0.05202065 -0.13783029 0.103763804 -0.05989017 0.059042607 0.17060211
-0.08445049 -0.011189071 0.0035255123 -0.08087475 0.08078376 -0.012312238 0.12225679 0.0002348288
-0.14171128 -0.05596837 0.022985823 -0.003047035 -0.08845169 0.09334797 -0.043947276 0.10528723
-0.049824998 0.036405385 -0.012349537 0.14760178 -0.002163793 0.10744555 -0.06326047 0.05644364
0.07018022 0.10466362 -0.06514073 -0.18362829 -0.021700425 -0.11774599 0.042312976 -0.041008707
-0.11969859 -0.037909493 -0.057662822 -0.0008009024 -0.1764698 -0.066093 -0.094055675 -0.103780046
0.013276096 0.08022246 -0.013916154 0.014767699 0.076969855 0.17452973 0.05742124 0.1815809
0.08818454 0.08076775 -0.10525589 -0.10949936 0.08521757 0.22308178 0.08974638 0.072857425
0.0033256968 0.08440167 -0.040309083 0.13000955 -0.06980157 0.13644637 -0.034286786 0.12205279
0.05212495 0.16578339 0.021223407 0.24732985 -0.11680405 -0.004976834 -0.06308345 -0.05339071
0.09127074 0.04742168 0.008548175 -0.02355401 0.12319929 0.0062971106 -0.11474694 -0.15533978
0.06666298 -0.037453998 0.08845649 0.1252158 -0.023851503 -0.07961401 0.107056014 -0.040892094
0.11926749 0.017191177 -0.034479044 0.15581742 -0.032974426 0.06969088 -0.08046637 0.02117489
0.01539072 0.053208254 0.009386151 0.027101163 0.10058245 0.062498204 -0.00927778 0.14048654
-0.11579419 -0.028088152 0.073353805 0.046683002 0.038425084 0.1192176 -0.044703 0.11255833
0.04280566 -0.09030119 -0.1202275 -0.15225008 0.050876692 0.06488098 0.06132321 -0.022217337
0.01552588 0.06944484 -0.15040292 -0.10637295 0.05131221 0.044772048 -0.014580357 0.09705419
-0.028116867 -0.013147705 -0.066749066 -0.07395823 0.060844928 0.001483222 -0.108936764 -0.041415844
-0.044137027 -0.03552942 -0.074570194 0.0702675 -0.05478038 -0.05194033 -0.0037366084 0.10337076
0.102329515 0.087086156 0.14309801 0.07288297 -0.119464144 -0.10995559 0.004260271 0.023116257
0.10423333 -0.019122465 -0.17143063 -0.20342913 -0.073355414 0.11719484 0.03724234 -0.06349062
0.08515562 -0.056708347 0.04892461 -0.0023241357 -0.15363382 -0.08604209 -0.12896332 0.03895273
0.07595892 -0.031873126 -0.03708238 0.023420433 0.018876938 -0.0071374443 0.005082136 0.20588274
-0.039014887 0.07946297 -0.048270732 -0.15223262 0.18739241 0.16714609 0.18637742 0.19304004
-0.09856997 0.047824584 0.1147275 0.14993653 0.05413173 0.010972383 0.11675885 0.03467584
-0.08968112 -0.051150113 0.0150385145 0.2526065 -0.084947586 -0.06764401 0.091632925 0.07281772
00000000: 9e1c d7bd 9243 e33d 44e9 ebbd e4d0 f13c
00000010: 8b77 bebc 35fd 193e 493d 07bd 9590 d0bd
00000020: 2ea7 65bd 5003 093d c609 3e3c 72c2 063d
00000030: 824e 33bc 7bab 38be e034 2ebd fc63 1d3e
00000040: 25df b43d 4419 94bd 7e17 ed3d faef 893d
00000050: f4ef e5bd 93d3 44bd b4d5 be3d 0c57 de3d
00000060: e3fb fd3d 4893 f3bc 13d9 073c 78d2 f63d
00000070: fbb0 89bb 56da 2d3e 7d7d 343e ac63 1e3e
00000080: cb28 d2bd b8ee 8abd 051e ce3d bb7d 2a3a
00000090: 534f 1cbc 3c9a 26bd c454 13bb 84ee b1bc
000000a0: 4bfc 05be 3ea2 98bd 39ab 89bd 3aeb 27be
000000b0: 4291 8a3c 45b4 f73d 0d74 963c b6fc 333d
000000c0: 326c ea3d 71e2 ea3c 9b13 55bd 6223 0dbe
000000d0: 1e82 d43d 654f 75bd a9d6 713d 52b2 2e3e
000000e0: 61f4 acbd 5e52 37bc 480c 673b a9a1 a5bd
000000f0: f571 a53d 45b9 49bc c561 fa3d 603c 7639
00000100: c31c 11be 173f 65bd c44c bc3c c4b0 47bb
00000110: 2926 b5bd 382d bf3d 0f02 34bd d5a0 d73d
00000120: 4c15 4cbd d01d 153d b655 4abc ec24 173e
00000130: 6cce 0dbb 6a0c dc3d b58e 81bd 7231 673d
00000140: a6ba 8f3d e159 d63d 8168 85bd 0e09 3cbe
00000150: 17c5 b1bc cf24 f1bd 5f50 2d3d bff8 27bd
00000160: 8924 f5bd fc46 1bbd da2f 6cbd a6f3 51ba
00000170: 80b4 34be c45b 87bd 43a0 c0bd a28a d4bd
00000180: fc83 593c ac4b a43d 9500 64bc 38f4 713c
00000190: 5fa2 9d3d ecb7 323e 8932 6b3d 58f0 393e
000001a0: 199a b43d 9069 a53d 6690 d7bd 3341 e0bd
000001b0: 8d86 ae3d 8d6f 643e f3cc b73d 4636 953d
000001c0: eff3 593b c8da ac3d 231b 25bd 3921 053e
000001d0: 20f4 8ebd 99b8 0b3e 4d70 0cbd d0f6 f93d
000001e0: f980 553d 1fc3 293e b6dc ad3c 0944 7d3e
000001f0: f636 efbd b614 a3bb e531 81bd 38b0 5abd
00000200: 27ec ba3d 3c3d 423d a50d 0c3c 57f4 c0bc
00000210: e94f fc3d fe57 ce3b 7200 ebbd 6411 1fbe
00000220: 9a86 883d 5d69 19bd ad28 b53d 9238 003e
00000230: 3a64 c3bc ac0c a3bd 2f40 db3d 787e 27bd
00000240: 8442 f43d 83d4 8c3c e639 0dbd 9a8e 1f3e
00000250: 3110 07bd 18ba 8e3d 8dcb a4bd f776 ad3c
00000260: 5c29 7c3c e6f0 593d 5fc8 193c 4203 de3c
00000270: 2cfe cd3d 1efe 7f3d d401 18bc b4db 0f3e
00000280: 8125 edbd 2019 e6bc 853a 963d ad36 3f3d
00000290: 9f63 1d3d 5b28 f43d 7e1a 37bd fb84 e63d
000002a0: fd54 2f3d d5ef b8bd d639 f6bd 72e7 1bbe
000002b0: 1464 503d 52e0 843d 0c2e 7b3d 2201 b6bc
000002c0: 4360 7e3c 1939 8e3d 3903 1abe 10da d9bd
000002d0: c02c 523d e562 373d 73e2 6ebc 59c4 c63d
000002e0: 5855 e6bc 7969 57bc bcb3 88bd 6a77 97bd
000002f0: 8838 793d ac68 c23a 3d1a dfbd a9a3 29bd
00000300: 07c9 34bd 4c87 11bd 42b8 98bd 68e8 8f3d
00000310: 6461 60bd 62bf 54bd e3e1 74bb 0db4 d33d
00000320: 2392 d13d 3a5a b23d 4988 123e ab43 953d
00000330: 9ea9 f4bd 6530 e1bd be99 8b3b 4e5e bd3c
00000340: 4978 d53d b7a6 9cbc 838b 2fbe ba4f 50be
00000350: 5d3b 96bd d903 f03d 6d8b 183d 5f07 82bd
00000360: 1266 ae3d 0347 68bd 2c65 483d 8750 18bb
00000370: 2f52 1dbe d636 b0bd f60e 04be e68c 1f3d
00000380: 5a90 9b3d 658d 02bd b2e3 17bd 35dc bf3c
00000390: cfa3 9a3c 39e1 e9bb 0c88 a63b edd2 523e
000003a0: 13ce 1fbd 7bbd a23d 88b7 45bd dee2 1bbe
000003b0: cce3 3f3e 5828 2b3e b9d9 3e3e 4aac 453e
000003c0: 0ddf c9bd b6e3 433d 40f6 ea3d f688 193e
000003d0: 3cb9 5d3d 83c5 333c 441f ef3d 4108 0e3d
000003e0: bcaa b7bd c882 51bd 1a64 763c a455 813e
000003f0: 00f9 adbd f188 8abd 0baa bb3d 7521 953d

lstm.weight_hh_l0 f4 [256, 64]
-0.036996003 -0.15328054 -0.06255423 -0.11092175 0.06552656 -0.15288532 -0.08130167 0.084318504
-0.05141963 0.0077283173 -0.064582944 0.0020905805 -0.035890948 0.079249874 -0.0921898 -0.0662437
-0.13052678 0.094495066 -0.067705385 0.096250236 0.1257404 -0.10803686 0.006563179 -0.009897424
0.07126083 -0.06876655 0.12682824 -0.0305619 0.012483522 0.019635132 0.017744003 -0.11454984
0.04700104 0.101549745 -0.039975397 0.054353345 -0.07987478 0.002818291 0.051138114 0.0740396
0.051687665 0.19154124 0.093719825 -0.060801476 -0.020237586 0.08204684 0.20200437 0.0043722177
-0.061309796 0.06281025 0.0658632 -0.010239268 0.120587274 0.11390002 -0.0037001974 0.019543983
0.018583845 -0.12817697 0.057435166 0.09969187 -0.13079801 -0.058021046 0.009417802 0.10467607
0.06747578 0.14353742 0.078265704 -0.059159953 -0.07715183 -0.16117863 -0.012323302 -0.23297033
-0.032402713 -0.09364414 -0.002524715 0.10491536 -0.15228908 -0.030706078 0.174212 0.21528918
0.0330657 -0.03728781 -0.13283546 0.025498347 0.03484632 0.11291193 0.053632997 -0.025744347
-0.091294244 -0.10006575 -0.076367535 0.14644668 -0.12626897 0.015727092 -0.12134682 0.06932201
0.08783133 -0.054722313 0.049286447 -0.03614846 0.068194374 -0.08993917 -0.11625873 -0.09005013
-0.05856791 -0.08841527 -0.051513135 -0.08038103 -0.019987686 -0.13097751 0.0270891 0.18264486
-0.05196641 0.06194452 0.047235303 0.13309264 0.05734851 -0.04370999 0.05044781 -0.059239686
-0.16523702 0.16942725 0.039817065 -0.1661122 -0.11467704 0.14306787 0.049934793 0.038372394
-0.101422146 0.022463344 -0.090249546 -0.08016351 0.0678943 0.017988106 -0.023931056 0.07635414
-0.013204373 0.007064051 0.014196001 -0.036825806 -0.04736679 0.1051576 0.07643023 -0.014516916
0.065764 0.1017498 0.0458719 -0.12496963 -0.036124118 0.06382159 -0.010831163 0.12169023
-0.12497345 -0.12446743 0.122806735 0.12775944 -0.15396774 0.07200794 0.08894413 0.042403903
-0.0067056464 -0.11052842 0.07206809 -0.09373826 0.0031768447 0.083865955 0.071447015 -0.049748078
-0.012276914 0.14437953 0.09541578 -0.08504173 0.15786631 0.10526996 0.044401474 -0.14667183
0.05257292 0.02312939 -0.027479047 -0.16394977 0.06601355 -0.028774561 -0.068095915 0.074675955
-0.0673872 -0.15728956 0.050985772 -0.01871806 0.085743055 0.053307924 -0.07576584 0.109784596
-0.011524536 -0.04899584 -0.03502871 0.05224485 0.004340686 -0.042953003 0.04330913 -0.106609255
-0.06415574 0.0152205825 -0.06902376 -0.14116885 -0.123904586 0.023933465 0.008158246 0.09015612
-0.028779007 0.033396974 0.14756955 -0.13350886 0.031716973 0.071447395 -0.13773173 0.21639402
0.011204126 0.0149925575 -0.025334246 0.09432437 -0.036279652 0.1298186 -0.18947698 -0.11159615
-0.006986105 0.0977708 0.077032305 -0.079335704 0.05499205 -0.03828962 -0.10788872 -0.014772542
-0.068520464 -0.014111005 0.017671304 0.11118113 -0.05866564 -0.08816176 0.057869554 0.18662229
-0.041889448 0.10998225 0.030756593 0.054844853 -0.021138625 0.0069290455 0.05792097 0.008589288
0.021579828 0.12518322 -0.115009464 0.08903724 -0.11659969 0.19681089 0.17498061 0.08528773
00000000: 1f89 17bd 93f5 1cbe 6f1c 80bd f12a e3bd
00000010: ca32 863d f88d 1cbe 7d81 a6bd 2eaf ac3d
00000020: 649d 52bd d33d fd3b 1044 84bd 1f02 093b
00000030: 6302 13bd c24d a23d 02ce bcbd c7aa 87bd
00000040: d0a8 05be a186 c13d 1fa9 8abd d81e c53d
00000050: 17c2 003e 6e42 ddbd f00f d73b ce28 22bc
00000060: 33f1 913d 7ad5 8cbd 43df 013e f35c fabc
00000070: b087 4c3c dbd9 a03c df5b 913c 1b99 eabd
00000080: 2a84 403d 50f9 cf3d 3ebd 23bd 9da1 5e3d
00000090: 6395 a3bd 14b3 383b 3376 513d 13a2 973d
000000a0: 72b6 533d 6323 443e 2ef0 bf3d f80a 79bd
000000b0: 4bc9 a5bc 2c08 a83d 3cda 4e3e d244 8f3b
000000c0: fb1f 7bbd a9a2 803d 49e3 863d 9ac2 27bc
000000d0: 76f6 f63d 6a44 e93d 037f 72bb b41a a03c
000000e0: 263d 983c d340 03be 2341 6b3d 402b cc3d
000000f0: eaef 05be 7aa7 6dbd 204d 1a3c 6860 d63d
00000100: be30 8a3d 79fb 123e c549 a03d b551 72bd
00000110: c701 9ebd 030c 25be ade7 49bc c68f 6ebe
00000120: b5b8 04bd 80c8 bfbd b075 25bb dddd d63d
00000130: abf1 1bbe 508b fbbc a164 323e c474 5c3e
00000140: e66f 073d 1abb 18bd 0506 08be e9e1 d03c
00000150: 04bb 0e3d 5f3e e73d 46ae 5b3d cfe5 d2bc
00000160: 7af8 babd 46ef ccbd 9566 9cbd 1ef6 153e
00000170: a74c 01be 1ad6 803c ae84 f8bd b3f8 8d3d
00000180: eae0 b33d 8124 60bd 96e0 493d 6810 14bd
00000190: 7ea9 8b3d 0732 b8bd 0f19 eebd 346c b8bd
000001a0: e8e4 6fbd 1113 b5bd 70ff 52bd cf9e a4bd
000001b0: 37bd a3bc f81e 06be f6e9 dd3c 4107 3b3e
000001c0: bbda 54bd 89b9 7d3d ce79 413d 7049 083e
000001d0: 45e6 6a3d 3f09 33bd 5da2 4e3d 50a5 72bd
000001e0: e533 29be 567e 2d3e 3817 233d 5119 2abe
000001f0: ccdb eabd 6280 123e 6d88 4c3d 5f2c 1d3d
00000200: 6ab6 cfbd 0c05 b83c c1d4 b8bd c42c a4bd
00000210: 2b0c 8b3d cb5b 933c 100b c4bc 8f5f 9c3d
00000220: 2857 58bc 8e79 e73b 5896 683c a8d6 16bd
00000230: ae03 42bd de5c d73d 7487 9c3d 5cd8 6dbc
00000240: 47af 863d 3362 d03d 2ce4 3b3d 14f0 ffbd
00000250: e2f6 13bd e5b4 823d 3175 31bc ba38 f93d
00000260: 15f2 ffbd c8e8 febd 1982 fb3d 5fd3 023e
00000270: b8a9 1dbe e678 933d 5728 b63d b7af 2d3d
00000280: 0abb dbbb b95c e2bd 6f98 933d d8f9 bfbd
00000290: 9c32 503b eac1 ab3d d052 923d a4c4 4bbd
000002a0: 1c25 49bc 3ad8 133e 5969 c33d 5c2a aebd
000002b0: b5a7 213e c797 d73d 52de 353d 2431 16be
000002c0: b456 573d d979 bd3c bd1b e1bc 73e2 27be
000002d0: 1d32 873d a1b8 ebbc df75 8bbd b5ef 983d
000002e0: 4d02 8abd 8410 21be 75d6 503d 9e56 99bc
000002f0: 0e9a af3d 6959 5a3d 1f2b 9bbd bfd6 e03d
00000300: 68d1 3cbc ddaf 48bd 447a 0fbd b2fe 553d
00000310: 503c 8e3b 7def 2fbd ea64 313d f455 dabd
00000320: 1664 83bd c05f 793c 545c 8dbd 918e 10be
00000330: b0c1 fdbd 1d10 c43c 2aaa 053c c6a3 b83d
00000340: f4c1 ebbc 44cb 083d 791c 173e 8cb6 08be
00000350: a8e9 013d 0353 923d 8c09 0dbe 6596 5d3e
00000360: 8391 373c 58a3 753c c489 cfbc 232d c13d
00000370: f999 14bd 2bef 043e 4106 42be 868c e4bd
00000380: b2eb e4bb 0f3c c83d 1dc3 9d3d c27a a2bd
00000390: 583f 613d 94d5 1cbd c3f4 dcbd 8808 72bc
000003a0: 7554 8cbd d831 67bc 69c3 903c efb2 e33d
000003b0: 624b 70bd 278e b4bd a008 6d3d ea19 3f3e
000003c0: 4594 2bbd 603e e13d 40f5 fb3c ffa4 603d
000003d0: e92a adbc 0c0d e33b 8a3e 6d3d 16ba 0c3c
000003e0: 2ec8 b03c 0830 003e 158a ebbd 2859 b63d
000003f0: d1cb eebd cb88 493e 1e2e 333e 55ab ae3d

lstm.bias_ih_l0 f4 [256]
-0.10422644 -0.19881682 0.0004925831 -0.081212774 0.01266385 0.05850545 -0.13562 0.11535464
0.0706845 -0.11257859 0.0038283225 0.07966172 -0.11314671 0.055417005 0.10794041 0.10351748
-0.060672402 0.0090818815 -0.075752966 0.06797172 -0.13285542 -0.050559137 0.10873771 -0.016765004
-0.009161087 0.114966065 -0.07186861 0.013827102 -0.033864252 0.01905454 -0.06542722 -0.023566458
-0.13081498 0.069039546 -0.053502187 -0.15628771 0.07648715 0.02520255 0.100348696 0.021775302
-0.1179377 -0.22555129 0.004563964 0.06150679 0.057842016 -0.07583815 -0.016679911 -0.089356296
0.076796256 -0.04291983 -0.07427489 0.116442114 0.0349433 0.047809698 0.13512751 0.014246781
-0.18578386 0.1284939 -0.12749168 -0.104957394 -0.12794371 -0.079629585 -0.20081086 0.062299546
-0.113585085 -0.17915447 0.06639612 -0.108541556 0.050924055 -0.07920408 -0.007462612 0.04894387
0.10125394 0.02183128 -0.025441166 -0.12757483 -0.013886674 -0.025646027 0.07355958 0.120060444
-0.05817434 -0.1100729 -0.12778601 -0.11921374 0.05840263 -0.11794619 -0.038996745 0.018271638
-0.07807898 0.007277763 -0.014697533 -0.017425112 -0.09079736 -0.05799423 -0.06259194 -0.01889488
0.05131807 -0.1021514 0.01948708 -0.09937211 0.014874574 -0.07267237 -0.030667933 0.0669973
-0.078551926 -0.16166005 -0.10397773 0.02728541 0.028566781 0.061822046 -0.010240544 -0.002374728
-0.053125534 -0.024178917 -0.1725476 0.056643717 -0.08081689 -0.14449163 -0.08809796 0.040179633
-0.11661015 0.11206784 -0.03570356 0.06899769 0.057069715 0.042162858 -0.21479148 -0.047166508
-0.09867153 -0.042819027 -0.032903563 0.08848998 -0.05279416 0.095356464 -0.0023719193 -0.02024059
-0.10885485 0.11122413 0.048867844 0.03804069 0.08097517 0.0201685 -0.12727314 -0.015085554
0.076259844 0.067417674 0.011850296 0.048691936 -0.10625163 0.0216352 0.051068585 -0.084703684
-0.012485894 0.16834758 0.014636438 -0.098771736 -0.023780324 0.09091414 0.004451968 0.050430078
-0.079133205 -0.070648864 0.07288437 0.059664074 -0.051528677 -0.07372831 0.05829592 -0.12391571
0.06534432 -0.025805943 -0.10447807 -0.07273231 0.0049942574 -0.0038039028 -0.08671875 -0.03222687
-0.041867413 -0.10315439 -0.025920784 -0.047235362 -0.044949792 0.053138476 -0.08468371 -0.015856178
0.08835513 0.06357581 0.06418453 -0.065002 0.07476113 0.050065495 -0.042110413 -0.037456952
-0.116359845 -0.095139936 -0.02323992 -0.04760594 0.05074854 0.07540168 -0.13315432 0.007842903
0.07534557 -0.021365657 -0.05771815 -0.0519954 0.068081416 -0.004742213 -0.044683523 0.12785366
-0.094538815 -0.06368139 0.07716259 0.043720018 0.04275227 0.048757836 -0.09600028 -0.07708131
-0.0022983297 0.09713693 -0.1251128 -0.1379373 -0.12377802 0.030555299 0.1027777 0.050323557
-0.062130462 -0.05037922 -0.10762028 -0.07341353 0.0070874933 -0.06267064 -0.042399954 -0.036745116
-0.010653306 -0.21646498 -0.008153734 -0.08498206 0.08588216 0.021744028 -0.06197958 -0.10321939
-0.015588266 -0.09674879 0.0043606367 -0.044034485 -0.010750499 -0.16492663 0.038533103 -0.0055385884
-0.22121255 -0.07598206 0.031530958 0.0059417677 -0.123399965 -0.008428211 -0.018772358 -0.038924113
00000000: ac74 d5bd a396 4bbe b120 013a e252 a6bd
00000010: 097c 4f3c 69a3 6f3d f8df 0abe 0e3f ec3d
00000020: 09c3 903d 9b8f e6bd 98e4 7a3b af25 a33d
00000030: 76b9 e7bd f1fc 623d dd0f dd3d f900 d43d
00000040: a083 78bd 2ccc 143c 5f24 9bbd c234 8b3d
00000050: 400b 08be 1917 4fbd e0b1 de3d c356 89bc
00000060: 6218 16bc 5473 eb3d da2f 93bd 128b 623c
00000070: 3eb5 0abd 4418 9c3c b5fe 85bd 720e c1bc
00000080: 5df4 05be 9b64 8d3d 1c25 5bbd e309 20be
00000090: 4ba5 9c3d 9475 ce3c 9e83 cd3d 1e62 b23c
000000a0: 5289 f1bd ebf6 66be 4e8d 953b 8bee 7b3d
000000b0: c0eb 6c3d 0851 9bbd 4fa4 88bc 6f00 b7bd
000000c0: 5b47 9d3d b4cc 2fbd 6f1d 98bd 3479 ee3d
000000d0: b520 0f3d 1ad4 433d de5e 0a3e 556b 693c
000000e0: 203e 3ebe e893 033e 2e8d 02be e7f3 d6bd
000000f0: ad03 03be d614 a3bd 5da1 4dbe cf2d 7f3d
00000100: 4c9f e8bd 4574 37be b0fa 873d 094b debd
00000110: be95 503d c035 a2bd ed88 f4bb 5e79 483d
00000120: 3a5e cf3d 83d7 b23c fe69 d0bc faa2 02be
00000130: ef84 63bc 9e17 d2bc 68a6 963d 40e2 f53d
00000140: 3748 6ebd e76d e1bd 56da 02be 5526 f4bd
00000150: 9937 6f3d c68d f1bd 0dbb 1fbd 67ae 953c
00000160: dfe7 9fbd 4d7a ee3b eccd 70bc 1cbf 8ebc
00000170: f7f3 b9bd 5c8b 6dbd 3430 80bd 6fc9 9abc
00000180: e632 523d c134 d1bd 5ea3 9f3c 9b83 cbbd
00000190: 7cb4 733c 40d5 94bd 513b fbbc e135 893d
000001a0: d5df a0bd 368a 25be 47f2 d4bd a785 df3c
000001b0: e204 ea3c 1d39 7d3d f4c7 27bc 53a1 1bbb
000001c0: 299a 59bd dd12 c6bc 51b0 30be 3e03 683d
000001d0: 5383 a5bd 9df5 13be b46c b4bd 6693 243d
000001e0: 4dd1 eebd d383 e53d e53d 12bd a94e 8d3d
000001f0: efc1 693d f6b2 2c3d 4cf2 5bbe ab31 41bd
00000200: 4d14 cabd 0163 2fbd e3c5 06bd 3c3a b53d
00000210: b03e 58bd 404a c33d 3472 1bbb 98cf a5bc
00000220: 4bef debd 7ac9 e33d a629 483d 8ed0 1b3d
00000230: 4fd6 a53d 6938 a53c e453 02be 6629 77bc
00000240: 1f2e 9c3d 4712 8a3d be27 423c 3271 473d
00000250: 749a d9bd 4e3c b13c 4b2d 513d 2079 adbd
00000260: a391 4cbc 4f63 2c3e accd 6f3c d648 cabd
00000270: f4ce c2bc 3131 ba3d d0e1 913b c58f 4e3d
00000280: 9710 a2bd 5ab0 90bd 6744 953d 5162 743d
00000290: bc0f 53bd defe 96bd b4c7 6e3d 85c7 fdbd
000002a0: 3ed3 853d fc66 d3bc 99f8 d5bd adf4 94bd
000002b0: dea6 a33b e64a 79bb 9a99 b1bd 5300 04bd
000002c0: 2a7d 2bbd 9c42 d3bd d357 d4bc de79 41bd
000002d0: 461d 38bd bba7 593d a76e adbd d1e4 81bc
000002e0: 89f3 b43d 0934 823d 2e73 833d c51f 85bd
000002f0: 5d1c 993d 7a11 4d3d f87b 2cbd 766c 19bd
00000300: 124e eebd bad8 c2bd a561 bebc 72fe 42bd
00000310: b3dd 4f3d 326c 9a3d 9b59 08be 857f 003c
00000320: c74e 9a3d 0807 afbc de69 6cbd 21f9 54bd
00000330: 456e 8b3d 9164 9bbb 1206 37bd 12ec 023e
00000340: 919d c1bd 636b 82bd 6c07 9e3d c313 333d
00000350: 011d 2f3d 4cb6 473d cb9b c4bd cedc 9dbd
00000360: 939f 16bb baef c63d 921d 00be 703f 0dbe
00000370: 557f fdbd 1b4f fa3c 1d7d d23d 1320 4e3d
00000380: 837c 7ebd 715a 4ebd 0568 dcbd d559 96bd
00000390: 343e e83b 7759 80bd 93ab 2dbd 0c82 16bd
000003a0: 348b 2ebc ffa8 5dbe 3d97 05bc 130b aebd
000003b0: fce2 af3d 8820 b23c 4dde 7dbd b064 d3bd
000003c0: ed65 7fbc 3b24 c6bd ace3 8e3b 815d 34bd
000003d0: dc22 30bc 87e2 28be e3d4 1d3d 0c7d b5bb
000003e0: 8b85 62be 7b9c 9bbd 9b26 013d 29b3 c23b
000003f0: 1fb9 fcbd 7b16 0abc 7dc8 99bc e46e 1fbd

lstm.bias_hh_l0 f4 [256]
-0.030141175 -0.14541097 0.07153532 -0.09937929 0.014823863 0.058583815 -0.14200027 -0.004712155
-0.043514308 -0.03570234 0.061595324 0.06473886 -0.029264893 -0.050648373 -0.008270236 0.114555515
-0.09504635 -0.088584095 0.028739024 -0.06503233 -0.00315019 -0.06513672 0.044586834 0.04935865
-0.072556034 -0.034506172 -0.035313852 -0.008579807 -0.09651369 -0.02831761 -0.05720115 -0.0072311824
-0.07725192 0.07849917 -0.12705505 -0.016608443 -0.025418837 -0.060737334 -0.08107443 0.03661683
-0.05223997 -0.089519516 0.003562161 0.082273185 -0.01619978 0.08656211 -0.060511965 -0.05040285
0.01332809 -0.18899286 -0.008845934 0.04206301 -0.07318441 -0.17965578 -0.06562585 -0.02817959
-0.15859349 0.11812579 0.048764836 0.091924585 -0.045373328 0.09266354 -0.21473588 -0.038421888
-0.030179083 -0.005704413 -0.008515168 -0.15400012 0.03942288 0.038787637 -0.0122912135 0.017811617
-0.11070551 -0.1307198 -0.09714042 0.013095073 0.019999651 0.0027991773 -0.12881339 -0.10389694
-0.10709346 0.033581816 0.06112243 -0.083531685 -0.034300137 -0.123722464 -0.068283446 -0.059437506
0.096978 0.013274957 -0.116451666 -0.08800706 -0.080751695 0.05112427 0.040129356 0.03099892
-0.017829021 -0.09833934 -0.15526871 -0.080754645 0.09295865 -0.09793013 -0.060965896 -0.068917714
-0.051273435 -0.058258303 -0.09877477 -0.114863634 0.040762458 -0.080236346 -0.05975355 -0.16739306
0.012905611 -0.080648385 -0.19617462 -0.12839092 -0.12148761 -0.033423062 0.029407768 0.021655742
-0.07605911 0.060692903 -0.010118496 0.079409465 -0.05742529 -0.040090196 -0.10255443 -0.09124643
-0.005879832 -0.0809916 0.08310705 -0.11011985 -0.046098538 0.0503513 -0.039404735 -0.02674703
0.02361744 0.020065602 0.055149335 -0.07415412 -0.0076503833 -0.07427959 -0.11523039 -0.009525946
-0.11068577 0.050146166 -0.006882718 0.018596753 -0.00071946706 -0.05143952 -0.013861721 -0.10613602
0.02043832 -0.054228175 -0.022806928 -0.10852513 -0.102448 -0.004995954 -0.03827955 0.040378325
0.10167933 -0.0012998547 -0.044124477 -0.066882394 0.13096803 0.09764001 0.114125505 0.048847143
-0.0038179997 -0.02429577 0.023176223 -0.06235248 0.020192921 0.02458283 -0.008003674 -0.049423713
0.07205655 -0.051946748 0.122548655 0.066776656 -0.10688274 0.09652108 -0.049761105 -0.043293882
-0.14605501 0.0038298685 0.03291132 0.036324322 0.08434006 -0.082725346 0.040362075 0.11846916
-0.05607156 -0.019173678 0.0061153797 -0.09768348 -0.02769679 -0.13303809 -0.03113868 0.10036035
-0.014666137 -0.102734916 -0.054087408 0.028631892 0.06479847 0.09184572 0.040034644 -0.09155969
-0.13452356 0.053884126 -0.12467256 0.0650964 0.030711582 -0.04705211 -0.08447499 0.008706118
-0.0680228 -0.06398897 0.080072306 -0.054204207 0.0642258 0.07452789 -0.12194758 0.10540737
0.07029726 -0.13764353 -0.15396245 -0.1673966 0.08170212 -0.044298176 0.08132189 0.012464634
-0.0721489 -0.17435545 -0.08346701 0.078057624 0.04625151 -0.048166364 0.083371684 -0.17468423
0.026280146 -0.21260051 0.011885738 -0.07184401 0.096786864 0.052299753 -0.10058829 0.042449106
0.0036003455 -0.063202195 0.09470256 -0.1055789 -0.008202521 -0.030061258 -0.06753648 0.050226912
00000000: a0ea f6bc 9de6 14be 1c81 923d 5f87 cbbd
00000010: cadf 723c 95f5 6f3d 8568 11be 6c68 9abb
00000020: 0f3c 32bd 9e3c 12bd 614b 7c3d cf95 843d
00000030: eebc efbc ab74 4fbd e27f 07bc 159c ea3d
00000040: a9a7 c2bd 946b b5bd 1a6e eb3c ac2f 85bd
00000050: 6b73 4ebb 6766 85bd afa0 363d 4c2c 4a3d
00000060: 4298 94bd 5856 0dbd 42a5 10bd 5292 0cbc
00000070: f8a8 c5bd 55fa e7bc c14b 6abd 8ef3 ecbb
00000080: 4136 9ebd 2cc4 a03d b81a 02be 6e0e 88bc
00000090: 2a3b d0bc b6c7 78bd 5a0a a6bd 87fb 153d
000000a0: 94f9 55bd 0256 b7bd 2573 693b d87e a83d
000000b0: 67b5 84bc 7a47 b13d 65db 77bd 3873 4ebd
000000c0: 105e 5a3c 5887 41be 89ee 10bc 434a 2c3d
000000d0: b5e1 95bd aff7 37be d866 86bd e2d8 e6bc
000000e0: 5566 22be efeb f13d a3bd 473d f542 bc3d
000000f0: 62d9 39bd 62c6 bd3d b9e3 5bbe 4560 1dbd
00000100: 203a f7bc 16ec babb 3483 0bbc 35b2 1dbe
00000110: e379 213d c9df 1e3d 1661 49bc abe9 913c
00000120: 92b9 e2bd 69db 05be 8ef1 c6bd b88c 563c
00000130: 4fd6 a33c 6772 373b a8e7 03be ebc7 d4bd
00000140: d153 dbbd 168d 093d 835b 7a3d a912 abbd
00000150: 4d7e 0cbd 3462 fdbd 31d8 8bbd be74 73bd
00000160: 679c c63d 357f 593c 367e eebd 0c3d b4bd
00000170: 2561 a5bd af67 513d ae5e 243d 72f1 fd3c
00000180: 2b0e 92bc 2366 c9bd c3fe 1ebe b162 a5bd
00000190: 1b61 be3d 988f c8bd 60b7 79bd bb24 8dbd
000001a0: 1804 52bd 42a0 6ebd 6d4a cabd a03d ebbd
000001b0: 89f6 263d f452 a4bd 23c0 74bd 1669 2bbe
000001c0: 0e72 533c fb2a a5bd 00e2 48be e978 03be
000001d0: 7fce f8bd 9fe6 08bd 8fe8 f03c 6267 b13c
000001e0: e1c4 9bbd 1f99 783d 0cc8 25bc 6ea1 a23d
000001f0: c836 6bbd 9e35 24bd 0f08 d2bd 69df babd
00000200: 9bab c0bb edde a5bd 0734 aa3d 8486 e1bd
00000210: d2d1 3cbd 2a3d 4e3d dc66 21bd 961c dbbc
00000220: 5d79 c13c 9e60 a43c 45e4 613d 1ede 97bd
00000230: 11b0 fabb e61f 98bd e9fd ebbd b712 1cbc
00000240: 39af e2bd 1166 4d3d 6c88 e1bb 3858 983c
00000250: 9e9a 3cba 3fb2 52bd 461c 63bc d75d d9bd
00000260: 436e a73c 5d1e 5ebd 98d5 babc 6c42 debd
00000270: 42d0 d1bd 1ab5 a3bb 04cb 1cbd be63 253d
00000280: 413d d03d e35f aaba debb 34bd a3f9 88bd
00000290: 7c1c 063e 7cf7 c73d a2ba e93d f113 483d
000002a0: 6837 7abb ec07 c7bc 10dc bd3c 5065 7fbd
000002b0: a06b a53c ee61 c93c d821 03bc 8570 4abd
000002c0: 6292 933d 1dc6 54bd cafa fa3d 33c2 883d
000002d0: 57e5 dabd d8ac c53d 4dd2 4bbd ed54 31bd
000002e0: 728f 15be 88fe 7a3b 05ce 063d d0c8 143d
000002f0: 7bba ac3d e86b a9bd b452 253d f59f f23d
00000300: 4bab 65bd 1e12 9dbc 8663 c83b 470e c8bd
00000310: 61e4 e2bc 233b 08be 8c16 ffbc ba89 cd3d
00000320: 3d4a 70bc af66 d2bd c28a 5dbd 6e8d ea3c
00000330: 0fb5 843d 9c19 bc3d 5efb 233d a683 bbbd
00000340: 8bc0 09be 9ab5 5c3d 5454 ffbd 4351 853d
00000350: db96 fb3c b7b9 40bd 3901 adbd 1ba4 0e3c
00000360: 8a4f 8bbd a60c 83bd f3fc a33d 3b05 5ebd
00000370: d188 833d 14a2 983d a7bf f9bd d2df d73d
00000380: 03f8 8f3d 6df2 0cbe 55a8 1dbe 046a 2bbe
00000390: 7153 a73d 0172 35bd 178c a63d 7738 4c3c
000003a0: cdc2 93bd 3c8a 32be c0f0 aabd addc 9f3d
000003b0: 3972 3d3d 184a 45bd c6be aa3d 6ce0 32be
000003c0: 7649 d73c f3b3 59be 66bc 423c f422 93bd
000003d0: 3138 c63d 4438 563d 3c01 cebd 1ddf 2d3d
000003e0: c6f3 6b3b 2770 81bd 6af3 c13d c039 d8bd
000003f0: de63 06bc 0743 f6bc 9150 8abd bcba 4d3d

lstm.weight_ih_l1 f4 [256, 64]
-0.021477444 -0.06307958 -0.03907146 -0.05660257 0.07337615 0.057995923 0.055303875 0.18769915
-0.054453455 -0.07670465 -0.035487972 -0.015255648 0.0026428383 0.016931908 -0.07968096 -0.02255248
0.018081406 -0.07300287 -0.03121538 -0.031686723 -0.010413676 -0.05895725 0.12503608 0.116348036
-0.124428235 0.035062645 0.16623957 0.027216164 0.030510964 -0.12882546 0.036609735 0.10760992
-0.04111683 0.06872347 0.098408826 0.098640285 0.058102854 -0.10036248 -0.0552243 0.021241743
0.03286312 0.04910283 0.0033633243 0.004002953 0.2095396 0.058991324 -6.057939e-05 0.06230098
-0.0907366 -0.03905809 -0.07481333 -0.15979764 0.17570892 -0.077111766 0.01679229 -0.08482196
0.09250768 -0.1432116 0.11892173 0.111189134 -0.019421725 -0.014848931 0.00012377923 0.09944208
0.05414994 0.024259107 -0.011277803 0.059446666 -0.10639377 0.09086095 0.09337535 0.05150866
-0.044325385 -0.012967226 -0.10853917 0.12236455 -0.10346065 0.08518684 -0.023132598 -0.038637575
-0.051022444 -0.126206 0.054320514 -0.0059512546 -0.06634904 0.06925395 0.054050475 0.10577773
-0.1065635 0.003695827 0.065591656 -0.03159833 0.050773144 -0.09197148 -0.010559054 -0.056533087
-0.025296787 -0.051440086 -0.10146694 -0.027581876 -0.0591263 -0.059323326 -0.027091857 0.020227436
-0.021918302 0.11300629 0.026609953 -0.027825532 -0.025377912 -0.05193457 0.16983835 0.05389748
0.02301052 -0.071307346 0.08410046 0.056356583 0.0022274498 -0.023657316 0.024652224 0.112032704
0.046969105 0.018994952 0.05642779 0.1263393 -0.025861826 -0.08771169 -0.102960065 0.057860065
-0.037118528 0.04850341 0.048646342 0.045959525 0.101473145 -0.0835705 -0.0022048545 0.15808086
0.044769008 -0.07351157 0.00025670117 -0.07469585 -0.09007464 0.15984216 -0.077239245 -0.013474261
-0.065524325 -0.021760024 0.09576977 -0.044985443 0.022871932 -0.10518979 0.018903613 -0.061235882
0.026006665 0.07860967 -0.07038538 0.04549466 0.092605375 0.018696856 -0.02901247 -0.12441239
-0.086544886 -0.035092957 -0.1294408 0.03206688 -0.084130436 0.024811592 -0.030102856 0.07608619
-0.038829263 0.13524663 0.07545836 0.15245226 -0.013084931 0.06631633 0.093576185 0.021170892
-0.16261224 0.107751064 -0.11197488 0.052487526 0.053722683 -0.018604092 0.112965226 0.08867966
-0.035284236 0.034396745 -0.042912427 0.11491371 -0.12942435 0.009077852 0.07063346 0.15431514
-0.048911605 -0.09026206 -0.035491835 -0.044040762 0.12671329 -0.092417896 0.03695833 0.18535501
0.014410523 -0.08687011 -0.009309008 0.14545257 -0.010845288 -0.026382 -0.06413356 -0.17197983
0.08645759 -0.025220746 0.07738489 -0.08615494 0.021231655 0.06487143 0.09586396 0.0038588636
0.045498326 -0.07406918 0.04767749 -0.04977518 -0.122787245 -0.01281547 -0.06813221 -0.099577375
-0.0011269574 0.056989044 -0.13953464 -0.05128086 0.09371675 -0.12610112 -0.06533181 0.0031593204
0.00686988 -0.026556049 -0.11949027 -0.00087598676 0.017008394 0.052177932 -0.027632803 -0.10372854
-0.09571825 0.10961769 -0.071128584 -0.004821243 0.033606835 -0.015472222 -0.120878406 0.07563379
-0.07478214 -0.044206217 0.030095814 0.08255655 0.09311864 -0.12372344 -0.1345771 -0.06557745
00000000: 77f1 afbc de2f 81bd 6509 20bd 19d8 67bd
00000010: 3c46 963d 228d 6d3d 5186 623d 3534 403e
00000020: 960a 5fbd 5417 9dbd d65b 11bd d3f2 79bc
00000030: 7833 2d3b c9b4 8a3c c52f a3bd fbbf b8bc
00000040: 751f 943c 8782 95bd 66b7 ffbc f0c9 01bd
00000050: 1f9e 2abc 287d 71bd 7509 003e e147 ee3d
00000060: 3bd4 febd d99d 0f3d b53a 2a3e 6ff4 de3c
00000070: 21f2 f93c d2ea 03be 17f4 153d 9762 dc3d
00000080: 1f6a 28bd e4be 8c3d 918a c93d eb03 ca3d
00000090: 42fd 6d3d d88a cdbd e032 62bd 2a03 ae3c
000000a0: 7b9b 063d 0d20 493d 386b 5c3b 342b 833b
000000b0: 8d91 563e e3a0 713d a016 7eb8 502f 7f3d
000000c0: 1cd4 b9bd 60fb 1fbd bb37 99bd fea1 23be
000000d0: 0aed 333e c6ec 9dbd fc8f 893c 23b7 adbd
000000e0: ab74 bd3d 10a6 12be 3c8d f33d 21b7 e33d
000000f0: 4f1a 9fbc ee48 73bc bcca 0139 4aa8 cb3d
00000100: 54cc 5d3d 09bb c63c 89c6 38bc 597e 733d
00000110: fae4 d9bd 4e15 ba3d 933b bf3d bffa 523d
00000120: 898e 35bd 7d74 54bc c949 debd 449a fa3d
00000130: 2de3 d3bd 7076 ae3d 9380 bdbc 6f42 1ebd
00000140: e9fc 50bd 253c 01be 307f 5e3d be02 c3bb
00000150: 01e2 87bd 04d5 8d3d 0864 5d3d ffa1 d83d
00000160: f73d dabd b035 723b eb54 863d 406d 01bd
00000170: 80f7 4f3d 8b5b bcbd e2ff 2cbc 3d8f 67bd
00000180: 353b cfbc d7b2 52bd e6cd cfbd 63f3 e1bc
00000190: 6b2e 72bd 04fd 72bd beef ddbc 02b4 a53c
000001a0: 038e b3bc d76f e73d 1efd d93c 5ff2 e3bc
000001b0: 57e5 cfbc 58b9 54bd 1bea 2d3e 9bc3 5c3d
000001c0: 8f80 bc3c 9609 92bd dd3c ac3d 29d6 663d
000001d0: 68fa 113b fdcc c1bc 76f3 c93c 6771 e53d
000001e0: ad62 403d 4d9b 9b3c d420 673d 175f 013e
000001f0: 2edc d3bc 30a2 b3bd badc d2bd adfe 6c3d
00000200: 9909 18bd 83ab 463d 6341 473d 0e40 3c3d
00000210: 27d1 cf3d 0327 abbd 527f 10bb f3df 213e
00000220: b55f 373d 3c8d 96bd d995 8639 23fa 98bd
00000230: 0e79 b8bd aaad 233e 9c2f 9ebd 26c3 5cbc
00000240: 9e31 86bd 1442 b2bc f122 c43d a842 38bd
00000250: eb5d bb3c bf6d d7bd c0db 9a3c 7ad2 7abd
00000260: ee0b d53c 1bfe a03d 3626 90bd 9c58 3a3d
00000270: e3a7 bd3d 262a 993c 8fab edbc eccb febd
00000280: 723e b1bd a2bd 0fbd 218c 04be 9058 033d
00000290: 944c acbd ae41 cb3c 449a f6bc 14d3 9b3d
000002a0: 6f0b 1fbd 187e 0a3e ea89 9a3d 721c 1c3e
000002b0: 2e62 56bc dbd0 873d dfa4 bf3d 946e ad3c
000002c0: d383 26be 97ac dc3d 1653 e5bd 29fd 563d
000002d0: 510c 5c3d 9c67 98bc 505a e73d ae9d b53d
000002e0: 3486 10bd 9ae3 0c3d f1c4 2fbd e157 eb3d
000002f0: d187 04be 45bb 143c 47a8 903d ca04 1e3e
00000300: 8957 48bd 51db b8bd e35f 11bd 1664 34bd
00000310: 21c1 013e 9845 bdbd 9e61 173d b4cd 3d3e
00000320: 1d1a 6c3c f5e8 b1bd cf84 18bc 85f1 143e
00000330: 6fb0 31bc 101f d8bc 7558 83bd 7b1b 30be
00000340: ad10 b13d bd9b cebc f87b 9e3d 0072 b0bd
00000350: 02ee ad3c 50db 843d 5354 c43d fde4 7c3b
00000360: 745c 3a3d 95b1 97bd 7949 433d 0fe1 4bbd
00000370: e177 fbbd faf7 51bc e688 8bbd 39ef cbbd
00000380: 6ab6 93ba 586d 693d 2be2 0ebe e10b 52bd
00000390: 91ee bf3d a720 01be afcc 85bd 9a0c 4f3b
000003a0: bb1c e13b 128c d9bc 51b7 f4bd 7aa2 65ba
000003b0: 3055 8b3c 87b8 553d 305e e2bc a16f d4bd
000003c0: ee07 c4bd 3d7f e03d ddab 91bd 85fb 9dbb
000003d0: 52a7 093d 347f 7dbc 198f f7bd e3e5 9a3d
000003e0: 6127 99bd 9411 35bd 7f8b f63c 6913 a93d
000003f0: fcb4 be3d b762 fdbd 94ce 09be 784d 86bd

lstm.weight_hh_l1 f4 [256, 64]
-0.09767944 -0.0010114972 -0.12962519 -0.10894689 0.07458359 0.017156998 0.01097097 -0.096126154
-0.05767894 0.10709911 -0.008510271 0.034644082 0.12572907 -0.053761538 -0.07608886 0.058259774
-0.039823424 -0.06718446 -0.08320053 -0.075038806 0.023284243 -0.0509653 0.09780779 -0.009998301
-0.13140264 -0.14681315 -0.16366625 -0.020380592 0.018710487 0.07623882 -0.021177959 -0.13936737
-0.014335541 0.029836643 0.05062389 -0.16602004 0.0010295272 0.10061254 -0.07961639 -0.07257788
0.06607942 -0.07783067 0.14463876 0.12547724 0.103277735 -0.040012427 -0.060992625 -0.06137041
0.08352466 0.06749876 0.05707309 0.049467828 -0.015003971 -0.06958594 0.07654832 0.061307218
-0.11505788 -0.04634769 -0.049332336 0.102397315 0.08521164 0.12565258 0.06284291 -0.0043160324
0.033973876 -0.12066571 -0.04183002 -0.037424006 0.09873851 -0.029894812 -0.12765846 -0.038758185
-0.014286692 -0.14277601 0.047698434 0.027398083 0.018419955 -0.14293626 -0.04376297 0.17019552
-0.02834597 -0.019592453 0.094209306 -0.06462287 0.12465583 0.11865884 -0.019684624 -0.16623323
-0.044033512 -0.021181084 -0.03430708 0.04768407 -0.12852669 0.049546573 -0.048108015 -0.017393708
0.052771658 -0.15015167 0.06347674 0.03566813 -0.1536384 0.049762864 0.12597519 0.17786002
0.07403148 -0.008066812 -0.031014172 0.048161916 0.050440103 -0.011322502 -0.15443894 0.12184756
0.043293204 0.17763332 -0.10636941 0.041589227 0.124695875 -0.15048645 0.05585032 0.15456367
0.07267074 0.02097125 -0.09212129 -0.030512184 0.11441845 0.09221073 -0.015853794 0.14901659
-0.16400439 -0.06159083 -0.11205701 0.08175359 0.036135998 0.05412537 -0.08158838 0.14180543
0.021621885 -0.09991985 0.08596203 0.08433083 0.13097762 0.03483508 -0.009663937 0.11737313
0.10926121 0.054694913 0.094277404 -0.059164066 0.02671814 0.14577042 -0.07909496 -0.018392937
-0.02273674 -0.020572325 0.098587744 -0.120059125 -0.08781218 -0.045397565 0.03069902 -0.0123863295
-0.0119917495 -0.0025502727 -0.079029106 -0.08611893 0.05101511 -0.040075533 0.0746456 -0.09748181
-0.057151686 -0.033860322 -0.05284664 0.026064217 -0.10170092 0.029583674 0.095549025 0.110419236
-0.13722487 0.085938156 -0.07341665 0.13072589 -0.0015057245 -0.10130619 -0.087202355 0.08863776
-0.11191987 -0.08831324 0.0024277472 0.031160405 0.018946916 -0.060221475 -0.057494614 0.15001574
-0.09663326 -0.11659738 -0.07457061 -0.030762313 -0.09878148 0.048226725 0.044086825 -0.068293
0.063988164 0.0052629085 0.11883155 0.088729724 0.109143436 -0.05021873 0.102438144 0.115182616
-0.109806925 -0.018637117 0.122194424 -0.09906773 0.12500367 0.04693444 -0.041257184 -0.025940152
0.062418316 -0.0025725756 -0.14798601 0.061972816 -0.07096707 -0.040149294 -0.041191027 -0.11099952
0.15253627 0.06473065 -0.05645773 -0.14169359 -0.124922626 0.0053522354 0.04297603 0.038525887
-0.002836686 0.025582979 0.103250615 0.07035608 0.045058444 0.08527476 -0.06561141 0.07581936
-0.09192763 -0.005717753 -0.05447091 0.11733638 0.060798436 -0.0923214 0.07758357 -0.07867658
0.026920464 0.050115734 -0.12935972 -0.0861519 0.09720743 -0.07249333 -0.08783766 -0.077082716
00000000: 290c c8bd 3794 84ba 77bc 04be 8c1f dfbd
00000010: 48bf 983d d58c 8c3c 95bf 333c cadd c4bd
00000020: c140 6cbd c756 db3d aa6e 0bbc f4e6 0d3d
00000030: 1fbf 003e 0f35 5cbd 7ad4 9bbd cda1 6e3d
00000040: e31d 23bd 0298 89bd 0a65 aabd f2ad 99bd
00000050: 99be be3c fec0 50bd 734f c83d eacf 23bc
00000060: 6a8e 06be 3056 16be 2098 27be 33f5 a6bc
00000070: bc46 993c 1923 9c3d 667d adbc 52b6 0ebe
00000080: 9edf 6abc fa6b f43c ff5a 4f3d 2801 2abe
00000090: 33f1 863a f30d ce3d eb0d a3bd b6a3 94bd
000000a0: a654 873d b065 9fbd 2f1c 143e 1b7d 003e
000000b0: 4783 d33d 12e4 23bd 67d3 79bd 8a5f 7bbd
000000c0: fa0e ab3d ca3c 8a3d 79c5 693d c79e 4a3d
000000d0: 37d3 75bc 1383 8ebd 5ec5 9c3d 471d 7b3d
000000e0: 77a3 ebbd 13d7 3dbd b410 4abd afb5 d13d
000000f0: 7183 ae3d 12ab 003e c9b3 803d 816d 8dbb
00000100: 3128 0b3d 951f f7bd f455 2bbd ea49 19bd
00000110: 6a37 ca3d f7e5 f4bc e6b8 02be e7c0 1ebd
00000120: bb12 6abc e033 12be 6f5f 433d f271 e03c
00000130: 72e5 963c e25d 12be cd40 33bd bc47 2e3e
00000140: cf35 e8bc 5a80 a0bc cff0 c03d ff58 84bd
00000150: 8e4b ff3d 6803 f33d a641 a1bc 0b39 2abe
00000160: 7c5c 34bd f483 adbc 9585 0cbd 5f50 433d
00000170: 809c 03be 59f1 4a3d e90c 45bd 407d 8ebc
00000180: 1827 583d 5cc1 19be 1800 823d bf18 123d
00000190: 6253 1dbe 25d4 4b3d a4ff 003e f020 363e
000001a0: d19d 973d a92a 04bc 6f11 febc 6e45 453d
000001b0: 489a 4e3d 0482 39bc 3e25 1ebe 378b f93d
000001c0: 3754 313d 82e5 353e 35d8 d9bd 7759 2a3d
000001d0: 8d60 ff3d 1f19 1abe 4ec3 643d f045 1e3e
000001e0: 66d4 943d e6cb ab3c 16aa bcbd b0f4 f9bc
000001f0: 3854 ea3d fbd8 bc3d d1df 81bc ce97 183e
00000200: c4f0 27be ab46 7cbd 257e e5bd 6d6e a73d
00000210: 5703 143d 90b2 5d3d cf17 a7bd 7135 113e
00000220: 6120 b13c c7a2 ccbd dc0c b03d a4b5 ac3d
00000230: ff1e 063e 3baf 0e3d 7d55 1ebc 5361 f03d
00000240: 57c4 df3d c607 603d 8314 c13d 0556 72bd
00000250: 00e0 da3c d744 153e 8afc a1bd c9ac 96bc
00000260: 6642 babc 4b87 a8bc 5fe8 c93d 8fe1 f5bd
00000270: dfd6 b3bd ccf2 39bd 837c fb3c 08f0 4abc
00000280: 0b79 44bc 7a22 27bb 03da a1bd 1f5f b0bd
00000290: 38f5 503d 3e26 24bd cbdf 983d 8ba4 c7bd
000002a0: e317 6abd 1fb1 0abd b875 58bd a084 d53c
000002b0: 9248 d0bd 7659 f23c 35af c33d 7b23 e23d
000002c0: ad84 0cbe 5800 b03d 785b 96bd 02dd 053e
000002d0: bb5b c5ba 9f79 cfbd 2697 b2bd b787 b53d
000002e0: 3f36 e5bd 92dd b4bd d71a 1f3b 1b44 ff3c
000002f0: 9036 9b3c cbaa 76bd 797f 6bbd ba9d 193e
00000300: a9e7 c5bd 9bca eebd 7ab8 98bd 3f01 fcbc
00000310: f24d cabd 6389 453d 6394 343d 33dd 8bbd
00000320: 3a0c 833d 7a74 ac3b f55d f33d eeb7 b53d
00000330: 9886 df3d 28b2 4dbd 17cb d13d dde4 eb3d
00000340: 74e2 e0bd deac 98bc 1241 fa3d 06e4 cabd
00000350: f600 003e 543e 403d 4bfd 28bd 7180 d4bc
00000360: 59aa 7f3d a898 28bb a589 17be 35d7 7d3d
00000370: 2f57 91bd 9673 24bd ecb7 28bd b753 e3bd
00000380: 7832 1c3e 8191 843d 3840 67bd 2018 11be
00000390: 6fd7 ffbd ce61 af3b a207 303d 52cd 1d3d
000003a0: b2e7 39bb 6593 d13c 0f75 d33d d916 903d
000003b0: 348f 383d 89a4 ae3d 465f 86bd 2e47 9b3d
000003c0: 8e44 bcbd fd5b bbbb e41c 5fbd 0e4e f03d
000003d0: c807 793d 0113 bdbd 22e4 9e3d 3021 a1bd
000003e0: 4e88 dc3c 2846 4d3d e076 04be 6870 b0bd
000003f0: b014 c73d 6277 94bd 3be4 b3bd 8bdd 9dbd

lstm.bias_ih_l1 f4 [256]
0.051331867 0.023997804 -0.07101046 0.10451999 -0.15513651 -0.15305617 -0.10401218 -0.072675556
0.05242356 -0.09426444 0.12853636 -0.12162092 -0.12326707 -0.14264396 -0.1392359 -0.067358896
0.0786682 -0.0890847 -0.13473585 -0.07733545 0.089493744 0.03146644 -0.17060617 0.052890185
-0.15466626 -0.08400646 -0.15243752 0.042632625 0.14421064 -0.08127425 -0.17849907 -0.17996253
-0.02453868 0.054701343 -0.05123138 0.018943643 -0.0033661157 -0.1966481 0.0036785516 -0.10961353
0.050910357 0.10526092 -0.015439793 0.06270589 0.028803393 -0.22174188 -0.009704478 -0.17746384
-0.04166896 0.02362784 -0.14363979 -0.053933978 -0.005844176 -0.08605919 -0.19922815 -0.01075909
-0.21057422 0.08068078 -0.0806128 0.05789224 -0.035594273 -0.033908658 0.07907831 -0.092810936
-0.080930665 0.09438746 0.010518696 -0.10031179 -0.042267054 -0.024801765 0.09355561 -0.066663414
0.013293358 -0.07195737 0.09668488 -0.03128327 0.013534631 -0.1874797 -0.17195696 -0.048356187
-0.07146898 0.05075706 -0.07777577 -0.08690616 -0.003393523 -0.01651911 -0.16947833 -0.16128862
-0.0832291 -0.17674941 -0.1952773 -0.013685775 0.050001998 -0.20419668 -0.043256678 -0.104898006
-0.21253146 -0.06690213 -0.048683845 0.039814793 -0.08606507 -0.10237873 -0.07832055 -0.09355935
0.012547199 0.08305637 -0.011012662 -0.078049004 -0.029270524 -0.0975693 -0.08805201 -0.10046472
-0.07018522 -0.050492942 -0.17803845 0.02663021 -0.04236095 -0.0968023 -0.12995896 0.07414506
-0.11074948 -0.111511596 -0.0638435 -0.08080691 -0.08284787 0.13776682 0.08533282 -0.15802108
0.089076824 -0.008800755 0.11025334 0.014492405 -0.009715468 -0.09254249 0.13598491 -0.101596504
-0.086042225 -0.0054735197 -0.14001699 -0.05392082 -0.03171818 0.02664417 0.14896455 0.06375076
-0.16031505 -0.16535644 -0.020961476 -0.060097218 -0.11852434 -0.06573663 0.0319047 -0.02858362
0.07186016 0.029768769 -0.060281232 -0.026088197 0.09496266 -0.059180792 -0.15505697 0.012011135
-0.0002567409 -0.041497897 0.08896176 0.15229465 0.0662507 0.026481828 -0.07980209 0.018008446
0.13848323 -0.13029417 -0.069540195 -0.07944054 -0.02941038 0.06279637 -0.07146562 -0.006051886
-0.045839798 -0.039848354 -0.033483453 -0.029589709 -0.014293652 0.010912367 0.04604825 -0.07281261
-0.06067769 0.14304344 0.034333713 -0.041926328 -0.028971845 -0.025739772 -0.09603761 0.04212558
0.011793089 -0.058191158 -0.02511125 0.002201774 -0.09096796 -0.14814305 0.11026851 -0.11015005
0.0049212375 -0.014624504 -0.00245871 -0.023357866 -0.06909637 -0.052139312 -0.07294319 -0.11835375
-0.09314044 0.13388874 -0.115361005 -0.19343922 -0.057020992 0.067808144 -0.05263709 0.023263194
-0.11043802 0.029881563 -0.16285951 -0.053804856 0.11142827 -0.09104454 -0.045689367 -0.0027828428
0.012797164 0.07247456 0.10136354 0.049977235 0.013125166 -0.26178688 -0.009579022 -0.06124867
-0.004531117 -0.03765994 -0.055351574 -0.008283323 -0.011507105 -0.1299451 -0.18228921 -0.16371503
-0.17931426 0.0429062 -0.017367823 -0.08623577 0.07330639 -0.08843659 -0.19702843 -0.005815847
-0.13855942 -0.036758155 -0.03635126 0.015459233 -0.049418658 0.044052288 0.04215068 -0.16982731
00000000: 5d41 523d 0b97 c43c ef6d 91bd 940e d63d
00000010: 1bdc 1ebe c2ba 1cbe 5604 d5bd ecd6 94bd
00000020: 16ba 563d b70d c1bd 099f 033e 6414 f9bd
00000030: 7273 fcbd 4211 12be db93 0ebe 76f3 89bd
00000040: cb1c a13d 0a72 b6bd 32f8 09be 0c62 9ebd
00000050: 7f48 b73d f4e2 003d 62b3 2ebe 61a3 583d
00000060: d560 1ebe 940b acbd 9518 1cbe 8c9f 2e3d
00000070: f4ab 133e 1d73 a6bd 76c8 36be 1948 38be
00000080: 5805 c9bc 840e 603d ffd7 51bd b32f 9b3c
00000090: 0d9a 5cbb 1f5e 49be db13 713b 0f7d e0bd
000000a0: 6187 503d 0a93 d73d 2ff7 7cbc f26b 803d
000000b0: 18f5 eb3c 4e10 63be 88ff 1ebc 15b9 35be
000000c0: 12ad 2abd 2c8f c13c 4f16 13be e0e9 5cbd
000000d0: 8080 bfbb cd3f b0bd 7702 4cbe e546 30bc
000000e0: c5a0 57be f73b a53d 5318 a5bd 6a20 6d3d
000000f0: 4dcb 11bd cee3 0abd cff3 a13d a913 bebd
00000100: fabe a5bd 364e c13d 9c56 2c3c 4570 cdbd
00000110: 3820 2dbd 122d cbbc 159a bf3d d486 88bd
00000120: 62cc 593c 635e 93bd b902 c63d e322 00bd
00000130: 5bc0 5d3c aefa 3fbe 7c15 30be 2311 46bd
00000140: 545e 92bd a3e6 4f3d e748 9fbd dbfb b1bd
00000150: de65 5ebb 1653 87bc ba8b 2dbe d828 25be
00000160: 0574 aabd ccfd 34be c6f6 47be 4d3a 60bc
00000170: e5ce 4c3d ef18 51be ea2d 31bd c4d4 d6bd
00000180: d9a1 59be fc03 89bd b668 47bd d614 233d
00000190: e242 b0bd f1ab d1bd 8666 a0bd 0b9c bfbd
000001a0: c492 4d3c 7519 aa3d 746e 34bc 28d8 9fbd
000001b0: bdc8 efbc 6ad2 c7bd 9d54 b4bd 72c0 cdbd
000001c0: 45bd 8fbd b0d1 4ebd b64f 36be 9927 da3c
000001d0: ad82 2dbd 4940 c6bd f613 05be 5dd9 973d
000001e0: a0d0 e2bd 3160 e4bd 62c0 82bd 187e a5bd
000001f0: 25ac a9bd bf12 0d3e f9c2 ae3d 47d0 21be
00000200: e96d b63d 0b31 10bc 81cc e13d 8d71 6d3c
00000210: a02d 1fbc eb86 bdbd a13f 0b3e d411 d0bd
00000220: e836 b0bd 365b b3bb 9d60 0fbe 14dc 5cbd
00000230: ecea 01bd e044 da3c 2a8a 183e c28f 823d
00000240: a129 24be 3353 29be 67b7 abbc 8028 76bd
00000250: e4bc f2bd eda0 86bd 81ae 023d 3228 eabc
00000260: 6b2b 933d a2dd f33c 74e9 76bd eab6 d5bc
00000270: c87b c23d 8f67 72bd 41c7 1ebe 5aca 443c
00000280: 2e9b 86b9 b3f9 29bd 9531 b63d 21f3 1b3e
00000290: 72ae 873d 6bf0 d83c 476f a3bd 7386 933c
000002a0: 8cce 0d3e d66b 05be 176b 8ebd b9b1 a2bd
000002b0: 0aee f0bc 629b 803d 915c 92bd e64e c6bb
000002c0: 83c2 3bbd 0738 23bd f225 09bd 1e66 f2bc
000002d0: ec2f 6abc c9c9 323c 179d 3c3d c71e 95bd
000002e0: 2b89 78bd fb79 123e 82a1 0c3d f1ba 2bbd
000002f0: 5d56 edbc 37dc d2bc 5eaf c4bd df8b 2c3d
00000300: cd37 413c da59 6ebd 1cb6 cdbc a34b 103b
00000310: 694d babd d0b2 17be 75d4 e13d 5996 e1bd
00000320: 5542 a13b 9e9b 6fbc 4f22 21bb ff58 bfbc
00000330: 6682 8dbd 0890 55bd 3d63 95bd 7363 f2bd
00000340: 6ac0 bebd 211a 093e 6442 ecbd ee14 46be
00000350: d88e 69bd ffde 8a3d fd99 57bd 7492 be3c
00000360: 542d e2bd 2eca f43c a5c4 26be 7b62 5cbd
00000370: 8134 e43d 8f75 babd c624 3bbd 5b60 36bb
00000380: 32ab 513c 8b6d 943d b097 cf3d eeb4 4c3d
00000390: f00a 573c ee08 86be 55f1 1cbc e3df 7abd
000003a0: c479 94bb 4f41 1abd 55b8 62bd c6b6 07bc
000003b0: 4c88 3cbc 5410 05be 06aa 3abe eaa4 27be
000003c0: 289e 37be 69be 2f3d f746 8ebc 619c b0bd
000003d0: a921 963d 3e1e b5bd d2c1 49be dc92 bebb
000003e0: 85e2 0dbe b88f 16bd 0fe5 14bd b948 7d3c
000003f0: 386b 4abd 2c70 343d 31a6 2c3d 36e7 2dbe
